application/imu/ble_magic_wand/config/tflite/model_quantized.tflite (tflite, 15960 bytes, 5 tensors)

sequential/model/conv2d/Conv2D i1 [8, 3, 3, 1]
000000 04 f6 d6 95 27 c6 4a 7f 1c 10 0f ff da 7f 08 dc
       4 -10 -42 -107 39 -58 74 127 28 16 15 -1 -38 127 8 -36
000010 1e bd ee 2d f0 ec 7f 02 27 39 1a 05 a9 f0 e4 a6
       30 -67 -18 45 -16 -20 127 2 39 57 26 5 -87 -16 -28 -90
000020 7f ec d5 32 c4 50 c4 ab 62 df 45 7f 07 ef d4 f8
       127 -20 -43 50 -60 80 -60 -85 98 -33 69 127 7 -17 -44 -8
000030 0f 81 0e 0b c7 fb f4 3b f1 1e 7f e8 eb 06 22 e9
       15 -127 14 11 -57 -5 -12 59 -15 30 127 -24 -21 6 34 -23
000040 36 ce bc ef 13 1c 81 d0
       54 -50 -68 -17 19 28 -127 -48

sequential/model/conv2d_1/Conv2D i1 [24, 3, 3, 8]
000000 08 e2 27 d2 17 13 dd 2f 31 38 cf 1c 45 81 e4 42
       8 -30 39 -46 23 19 -35 47 49 56 -49 28 69 -127 -28 66
000010 02 1d cc f6 de 13 13 27 c7 c3 c4 3f 94 37 cb f5
       2 29 -52 -10 -34 19 19 39 -57 -61 -60 63 -108 55 -53 -11
000020 e7 12 22 1e 2c 98 f8 cf e0 e2 b6 12 d3 47 01 14
       -25 18 34 30 44 -104 -8 -49 -32 -30 -74 18 -45 71 1 20
000030 ff fe ba 41 05 0e ec 0b d1 24 16 be de d7 49 25
       -1 -2 -70 65 5 14 -20 11 -47 36 22 -66 -34 -41 73 37
000040 eb ed bd 62 20 e1 2f 21 2b 02 1a 02 0a c8 0e 54
       -21 -19 -67 98 32 -31 47 33 43 2 26 2 10 -56 14 84
000050 14 04 fb f0 e5 18 d6 f2 0e 32 16 f8 1a 01 de 0f
       20 4 -5 -16 -27 24 -42 -14 14 50 22 -8 26 1 -34 15
000060 ed 04 03 f2 ea f5 12 18 0e 00 12 ff 08 16 01 e2
       -19 4 3 -14 -22 -11 18 24 14 0 18 -1 8 22 1 -30
000070 1e 2b d6 24 1b cd 1e 14 23 dc d5 00 d8 2f ee 4f
       30 43 -42 36 27 -51 30 20 35 -36 -43 0 -40 47 -18 79
000080 05 06 3b 23 13 d1 40 07 33 05 f6 ed 01 81 48 1e
       5 6 59 35 19 -47 64 7 51 5 -10 -19 1 -127 72 30
000090 4e 2a be 40 18 b9 19 77 02 0f e2 13 19 1b a7 28
       78 42 -66 64 24 -71 25 119 2 15 -30 19 25 27 -89 40
0000a0 e9 61 29 4d 6e 92 de 2f 81 e0 e7 0f 01 f8 50 41
       -23 97 41 77 110 -110 -34 47 -127 -32 -25 15 1 -8 80 65
0000b0 0f dd cb e3 d2 42 24 a6 17 e1 e9 d5 f5 dd 17 37
       15 -35 -53 -29 -46 66 36 -90 23 -31 -23 -43 -11 -35 23 55
0000c0 f9 b4 33 1f c4 6d b3 f9 1b d5 a9 04 fc e2 a1 1d
       -7 -76 51 31 -60 109 -77 -7 27 -43 -87 4 -4 -30 -95 29
0000d0 3b 06 0f 14 d6 e5 ee 0c c1 16 d9 22 f5 2d b9 bf
       59 6 15 20 -42 -27 -18 12 -63 22 -39 34 -11 45 -71 -65
0000e0 35 e1 23 15 cd c0 c6 24 e0 e6 35 db c7 35 ce cd
       53 -31 35 21 -51 -64 -58 36 -32 -26 53 -37 -57 53 -50 -51
0000f0 28 10 4e 2f 4b b6 d7 fe 0b f8 47 c8 25 ff 81 08
       40 16 78 47 75 -74 -41 -2 11 -8 71 -56 37 -1 -127 8

sequential/model/conv2d_2/Conv2D i1 [16, 3, 3, 24]
000000 e5 01 df 15 1e e8 45 fb 11 23 c3 04 0e 24 3b d9
       -27 1 -33 21 30 -24 69 -5 17 35 -61 4 14 36 59 -39
000010 2a 23 15 f3 36 ff f9 e3 16 21 17 f1 84 43 01 00
       42 35 21 -13 54 -1 -7 -29 22 33 23 -15 -124 67 1 0
000020 74 c0 7f 0e e6 78 34 0c a6 f6 c7 29 1a 1e f6 05
       116 -64 127 14 -26 120 52 12 -90 -10 -57 41 26 30 -10 5
000030 fc c1 d0 27 3e f0 2b 0c be c6 f9 f5 d3 1d e3 e5
       -4 -63 -48 39 62 -16 43 12 -66 -58 -7 -11 -45 29 -29 -27
000040 8a f0 05 07 39 ae d3 cb 05 a4 38 aa 2a f5 b4 fd
       -118 -16 5 7 57 -82 -45 -53 5 -92 56 -86 42 -11 -76 -3
000050 d8 18 44 1d 05 bc e2 10 05 f9 e7 05 fb 47 f4 26
       -40 24 68 29 5 -68 -30 16 5 -7 -25 5 -5 71 -12 38
000060 12 a1 f0 e6 ed 02 f6 da 5a 56 fa e8 1c c4 2e ed
       18 -95 -16 -26 -19 2 -10 -38 90 86 -6 -24 28 -60 46 -19
000070 52 f1 6c c8 1e e2 b9 ff 0b f4 18 f9 47 64 d2 36
       82 -15 108 -56 30 -30 -71 -1 11 -12 24 -7 71 100 -46 54
000080 70 1a 13 eb d2 03 48 12 4c d9 d7 37 11 08 62 d5
       112 26 19 -21 -46 3 72 18 76 -39 -41 55 17 8 98 -43
000090 12 2c e2 d8 05 32 cf 07 10 4a 26 57 ed ba e8 ef
       18 44 -30 -40 5 50 -49 7 16 74 38 87 -19 -70 -24 -17
0000a0 f1 04 cc 69 25 f3 d4 34 f8 21 7b e7 fd 16 16 da
       -15 4 -52 105 37 -13 -44 52 -8 33 123 -25 -3 22 22 -38
0000b0 48 e4 f4 0e 7c 17 ff 1e 15 37 2c 2f 4f 3c ed 08
       72 -28 -12 14 124 23 -1 30 21 55 44 47 79 60 -19 8
0000c0 cb 0f f2 08 41 26 1e e3 13 16 f1 c1 29 b9 ca de
       -53 15 -14 8 65 38 30 -29 19 22 -15 -63 41 -71 -54 -34
0000d0 d1 17 09 dd 0e 31 c5 c6 11 e3 ca de 59 bd ff 0f
       -47 23 9 -35 14 49 -59 -58 17 -29 -54 -34 89 -67 -1 15
0000e0 9d 3d e3 0b d8 d1 59 18 d7 ca e7 be de 0f 12 54
       -99 61 -29 11 -40 -47 89 24 -41 -54 -25 -66 -34 15 18 84
0000f0 75 e2 b8 2c 32 16 26 c9 01 b0 1c b1 30 23 cb 16
       117 -30 -72 44 50 22 38 -55 1 -80 28 -79 48 35 -53 22

sequential/dense/MatMul i1 [16, 240] scale=0.0042845677 zero_point=0
000000 04 28 0f fd 19 df 1b e7 db 23 13 08 11 17 1a ee
       0.01713827 0.17138271 0.064268515 -0.0128537025 0.10711419 -0.14139073 0.115683325 -0.10711419 -0.158529 0.14995986 0.08140679 0.03427654 0.07283765 0.09854506 0.11139876 -0.07712222
000010 12 12 1f e6 28 cd e8 06 f0 0e 0a d8 c5 10 e8 f0
       0.07712222 0.07712222 0.1328216 -0.11139876 0.17138271 -0.21851295 -0.10282962 0.025707405 -0.06855308 0.059983946 0.042845678 -0.17138271 -0.2527895 0.06855308 -0.10282962 -0.06855308
000020 21 d4 40 06 e6 e7 f4 e5 e1 dc f0 09 0a 07 ea e1
       0.14139073 -0.18852098 0.27421233 0.025707405 -0.11139876 -0.10711419 -0.05141481 -0.115683325 -0.1328216 -0.15424444 -0.06855308 0.03856111 0.042845678 0.029991973 -0.09426049 -0.1328216
000030 e9 c3 ec 29 3c e3 12 17 ba 03 fb d5 d6 d4 1f e7
       -0.09854506 -0.26135862 -0.085691355 0.17566727 0.25707406 -0.12425246 0.07712222 0.09854506 -0.29991972 0.0128537025 -0.021422839 -0.1842364 -0.17995185 -0.18852098 0.1328216 -0.10711419
000040 08 31 f3 cf ff d7 d3 d7 f2 f0 1e e7 3c cb ec 10
       0.03427654 0.20994382 -0.05569938 -0.20994382 -0.0042845677 -0.17566727 -0.19280554 -0.17566727 -0.059983946 -0.06855308 0.12853703 -0.10711419 0.25707406 -0.22708209 -0.085691355 0.06855308
000050 ff fc 52 63 f7 f9 ea c8 fd e7 de 18 0d 3e 2d 0d
       -0.0042845677 -0.01713827 0.35133454 0.4241722 -0.03856111 -0.029991973 -0.09426049 -0.23993579 -0.0128537025 -0.10711419 -0.1456753 0.10282962 0.05569938 0.2656432 0.19280554 0.05569938
000060 df e7 14 f9 0f 06 1f fe 00 25 cb ef f1 e0 17 1b
       -0.14139073 -0.10711419 0.085691355 -0.029991973 0.064268515 0.025707405 0.1328216 -0.008569135 0.0 0.158529 -0.22708209 -0.07283765 -0.064268515 -0.13710617 0.09854506 0.115683325
000070 0f 21 33 00 2e df ea e4 0c 10 17 18 29 39 13 2d
       0.064268515 0.14139073 0.21851295 0.0 0.19709012 -0.14139073 -0.09426049 -0.11996789 0.05141481 0.06855308 0.09854506 0.10282962 0.17566727 0.24422036 0.08140679 0.19280554
000080 0f f7 10 d0 22 2c 21 0d 1d f8 f1 1f fb 21 1a 0f
       0.064268515 -0.03856111 0.06855308 -0.20565924 0.1456753 0.18852098 0.14139073 0.05569938 0.12425246 -0.03427654 -0.064268515 0.1328216 -0.021422839 0.14139073 0.11139876 0.064268515
000090 21 19 19 06 d7 fd f6 06 24 f7 1e 13 3b f2 0b 0a
       0.14139073 0.10711419 0.10711419 0.025707405 -0.17566727 -0.0128537025 -0.042845678 0.025707405 0.15424444 -0.03856111 0.12853703 0.08140679 0.2527895 -0.059983946 0.047130246 0.042845678
0000a0 ed ef fa 56 0d 02 06 55 f2 30 1d d7 f8 38 0f 0b
       -0.08140679 -0.07283765 -0.025707405 0.3684728 0.05569938 0.008569135 0.025707405 0.36418825 -0.059983946 0.20565924 0.12425246 -0.17566727 -0.03427654 0.23993579 0.064268515 0.047130246
0000b0 07 fc 4e ff 27 df 1b ef 25 07 1f 10 34 e0 fe 43
       0.029991973 -0.01713827 0.33419627 -0.0042845677 0.16709813 -0.14139073 0.115683325 -0.07283765 0.158529 0.029991973 0.1328216 0.06855308 0.22279751 -0.13710617 -0.008569135 0.28706604
0000c0 0b 27 ee 10 1c 04 2e f4 0f 19 fd e2 3a 01 40 21
       0.047130246 0.16709813 -0.07712222 0.06855308 0.11996789 0.01713827 0.19709012 -0.05141481 0.064268515 0.10711419 -0.0128537025 -0.12853703 0.24850492 0.0042845677 0.27421233 0.14139073
0000d0 07 25 15 f4 1e 1b f1 e7 28 f5 f9 10 12 f7 12 13
       0.029991973 0.158529 0.08997592 -0.05141481 0.12853703 0.115683325 -0.064268515 -0.10711419 0.17138271 -0.047130246 -0.029991973 0.06855308 0.07712222 -0.03856111 0.07712222 0.08140679
0000e0 e5 37 0c 32 04 fb 0a 49 ef ed 1e 31 30 d9 08 ec
       -0.115683325 0.23565122 0.05141481 0.21422838 0.01713827 -0.021422839 0.042845678 0.31277344 -0.07283765 -0.08140679 0.12853703 0.20994382 0.20565924 -0.16709813 0.03427654 -0.085691355
0000f0 22 cf d6 12 14 0f 0f 07 df 0a e9 09 14 fa 1f 17
       0.1456753 -0.20994382 -0.17995185 0.07712222 0.085691355 0.064268515 0.064268515 0.029991973 -0.14139073 0.042845678 -0.09854506 0.03856111 0.085691355 -0.025707405 0.1328216 0.09854506

sequential/dense_1/MatMul i1 [4, 16] scale=0.0074800616 zero_point=0
000000 dd 08 41 aa ee e9 ad ce 06 21 2f 3c 0a 21 23 47
       -0.26180217 0.059840493 0.486204 -0.6432853 -0.13464111 -0.17204142 -0.62084514 -0.37400308 0.044880368 0.24684203 0.3515629 0.4488037 0.07480062 0.24684203 0.26180217 0.53108436
000010 52 c5 06 09 df a6 a1 34 c4 07 32 ee 26 f5 ad de
       0.61336505 -0.44132364 0.044880368 0.067320555 -0.24684203 -0.67320555 -0.71060586 0.3889632 -0.4488037 0.05236043 0.37400308 -0.13464111 0.28424233 -0.08228068 -0.62084514 -0.25432208
000020 f2 da cf 01 81 b6 43 e6 13 42 9e 26 f2 2d e4 c3
       -0.10472086 -0.28424233 -0.36652303 0.0074800616 -0.9499678 -0.55352455 0.50116414 -0.1944816 0.14212117 0.49368405 -0.73304605 0.28424233 -0.10472086 0.33660278 -0.20944172 -0.45628375
000030 a2 56 ca f8 19 6d fb 08 46 b7 a2 3c cf d6 16 ae
       -0.7031258 0.6432853 -0.40392333 -0.059840493 0.18700154 0.8153267 -0.03740031 0.059840493 0.52360433 -0.54604447 -0.7031258 0.4488037 -0.36652303 -0.31416258 0.16456136 -0.61336505
