application/vision/people_flow_counter_mlx90640/config/tflite/model_quantized.tflite (tflite, 26480 bytes, 10 tensors)

model/class_type/Conv2D i1 [1, 1, 1, 32] scale=0.0033259704 zero_point=0
00000000: 87f3 ee4c e1cd 9d27 cdb5 104a eb6f 021e
00000010: ba8f e983 ad81 2946 2917 c3fe b584 8e5a
-0.40244243 -0.043237615 -0.059867468 0.25277376 -0.10310508 -0.16962449 -0.32927108 0.12971285
-0.16962449 -0.24944778 0.053215526 0.24612181 -0.06984538 0.3691827 0.0066519408 0.099779114
-0.23281793 -0.37583464 -0.07649732 -0.4157463 -0.27605554 -0.42239824 0.13636479 0.23281793
0.13636479 0.07649732 -0.2028842 -0.0066519408 -0.24944778 -0.41242033 -0.3791606 0.29933733

model/centerness/Conv2D i1 [1, 1, 1, 32] scale=0.0038897328 zero_point=0
00000000: b4be 6a59 fa9d 0ad5 0117 31d3 1fa1 af81
00000010: 081a 23af b2d4 e8e0 f73a 01d3 44f0 3a4b
-0.2956197 -0.25672236 0.41231167 0.34618622 -0.023338396 -0.38508356 0.038897328 -0.16725852
0.0038897328 0.08946385 0.19059691 -0.17503798 0.12058172 -0.3695246 -0.31506836 -0.49399605
0.031117862 0.10113305 0.13614064 -0.31506836 -0.30339915 -0.17114824 -0.093353584 -0.12447145
-0.035007596 0.2256045 0.0038897328 -0.17503798 0.26450184 -0.062235724 0.2256045 0.29172996

model/bounding_box/Conv2D i1 [4, 1, 1, 32]
00000000: 259e cf6b 5ef4 9939 0c4c fcbc 02f6 3229
00000010: 226b fbf9 c352 047f 3629 ae1f 6619 9fc8
00000020: 1a7f 96f5 cbc0 c10f cbe6 da61 8dde 6bc2
00000030: e3fa e6ad f7fe 583f 6371 f62f 2c60 62b9
00000040: c0e9 e793 6b3b 2ca0 7c1c 71a6 3362 6699
00000050: 7462 b1b1 473f 338a 7f0a cf07 2426 f711
00000060: 7fae 003f c2cf c771 1678 e6c3 c87a a922
00000070: 7000 0808 08e2 5520 38d1 08fb e015 c4bc
37 -98 -49 107 94 -12 -103 57
12 76 -4 -68 2 -10 50 41
34 107 -5 -7 -61 82 4 127
54 41 -82 31 102 25 -97 -56
26 127 -106 -11 -53 -64 -63 15
-53 -26 -38 97 -115 -34 107 -62
-29 -6 -26 -83 -9 -2 88 63
99 113 -10 47 44 96 98 -71
-64 -23 -25 -109 107 59 44 -96
124 28 113 -90 51 98 102 -103
116 98 -79 -79 71 63 51 -118
127 10 -49 7 36 38 -9 17
127 -82 0 63 -62 -49 -57 113
22 120 -26 -61 -56 122 -87 34
112 0 8 8 8 -30 85 32
56 -47 8 -5 -32 21 -60 -68

model/conv2d_2/Conv2D1 i1 [32, 1, 1, 96]
00000000: 3745 bbda 762f ce34 4dc1 43f3 c225 6558
00000010: bdaa dca3 54fe 5d6c ed43 0945 43ec 03c5
00000020: 3847 6b20 12f2 2737 41b6 1cc7 1d43 f9cd
00000030: 2ecf b43a 0d9f aab6 42d1 dd27 1047 e52e
00000040: cff2 7f2b 186a d91c b333 6145 be32 fdbd
00000050: 50b3 2224 d46b c6f5 ec2f e92e 1645 0af0
00000060: f4e6 813b 20c9 42e4 1315 4939 20b7 31d2
00000070: e21c 181b f207 ecd9 1c1a f305 0f5f 6825
00000080: d80b 450c 2c34 36f3 f511 eef3 e8f2 4725
00000090: 38c1 06d9 15e6 18ec 6e4d 08e8 31d6 d311
000000a0: 2b36 b433 1308 ef2d 00f2 263e dd40 e23a
000000b0: cce1 1870 d511 2510 3419 fc37 32fe c234
000000c0: 314a af4f b6ee 2406 b8ab dc16 0ed7 16b2
000000d0: a1b8 5a54 c7e6 432a ef4a 8fd4 471c aa7f
000000e0: fe3a 9c0f 91c4 c45a 3e49 d5c0 143e e399
000000f0: 0c32 cdaf e1a7 da36 0b8c 3f4b c70e 50ac
55 69 -69 -38 118 47 -50 52
77 -63 67 -13 -62 37 101 88
-67 -86 -36 -93 84 -2 93 108
-19 67 9 69 67 -20 3 -59
56 71 107 32 18 -14 39 55
65 -74 28 -57 29 67 -7 -51
46 -49 -76 58 13 -97 -86 -74
66 -47 -35 39 16 71 -27 46
-49 -14 127 43 24 106 -39 28
-77 51 97 69 -66 50 -3 -67
80 -77 34 36 -44 107 -58 -11
-20 47 -23 46 22 69 10 -16
-12 -26 -127 59 32 -55 66 -28
19 21 73 57 32 -73 49 -46
-30 28 24 27 -14 7 -20 -39
28 26 -13 5 15 95 104 37
-40 11 69 12 44 52 54 -13
-11 17 -18 -13 -24 -14 71 37
56 -63 6 -39 21 -26 24 -20
110 77 8 -24 49 -42 -45 17
43 54 -76 51 19 8 -17 45
0 -14 38 62 -35 64 -30 58
-52 -31 24 112 -43 17 37 16
52 25 -4 55 50 -2 -62 52
49 74 -81 79 -74 -18 36 6
-72 -85 -36 22 14 -41 22 -78
-95 -72 90 84 -57 -26 67 42
-17 74 -113 -44 71 28 -86 127
-2 58 -100 15 -111 -60 -60 90
62 73 -43 -64 20 62 -29 -103
12 50 -51 -81 -31 -89 -38 54
11 -116 63 75 -57 14 80 -84

model/separable_conv2d_1/separable_conv2d i1 [32, 1, 1, 32]
00000000: 12f0 ae91 60a7 33c8 2667 1faa 36b4 60b4
00000010: 952c 287f 37b2 c60d 5b54 2e8f 4add 292b
00000020: 7f4b ebe0 b44f 56c9 4155 ed61 03f8 bd91
00000030: fd45 2c42 c2ec d2c0 e64d 2956 0a43 adea
00000040: 704f 2c13 094d 8137 0ab5 22d8 f9b8 c18b
00000050: 983c 08aa 1eae 8228 3313 666a 952b 7646
00000060: ff42 deab 643e a26f d1ad f812 12b4 9abd
00000070: 0a37 fab7 af11 3355 2ffd 7f99 5a50 ad77
00000080: 4067 d53f 725d 56e4 43cc 4df6 db4c 6a44
00000090: 6e29 f367 8ef9 e37f 2267 ba64 7464 9bdc
000000a0: a356 e0d0 d6ad e8c0 faec 647f 4372 5f25
000000b0: 75e9 cedd 27b4 a60e b958 c3cd 463e b42c
000000c0: 0974 3cca c1fe b130 5a5d 44a8 1481 e0ef
000000d0: 6181 9bb4 4589 c771 a8b5 c2b8 6cd4 6f92
000000e0: 9f51 dfde 5c56 6bc7 d33a 37d6 212b 336f
000000f0: 70e8 6e81 2c40 65e2 a1bc 5500 f009 8fa9
18 -16 -82 -111 96 -89 51 -56
38 103 31 -86 54 -76 96 -76
-107 44 40 127 55 -78 -58 13
91 84 46 -113 74 -35 41 43
127 75 -21 -32 -76 79 86 -55
65 85 -19 97 3 -8 -67 -111
-3 69 44 66 -62 -20 -46 -64
-26 77 41 86 10 67 -83 -22
112 79 44 19 9 77 -127 55
10 -75 34 -40 -7 -72 -63 -117
-104 60 8 -86 30 -82 -126 40
51 19 102 106 -107 43 118 70
-1 66 -34 -85 100 62 -94 111
-47 -83 -8 18 18 -76 -102 -67
10 55 -6 -73 -81 17 51 85
47 -3 127 -103 90 80 -83 119
64 103 -43 63 114 93 86 -28
67 -52 77 -10 -37 76 106 68
110 41 -13 103 -114 -7 -29 127
34 103 -70 100 116 100 -101 -36
-93 86 -32 -48 -42 -83 -24 -64
-6 -20 100 127 67 114 95 37
117 -23 -50 -35 39 -76 -90 14
-71 88 -61 -51 70 62 -76 44
9 116 60 -54 -63 -2 -79 48
90 93 68 -88 20 -127 -32 -17
97 -127 -101 -76 69 -119 -57 113
-88 -75 -62 -72 108 -44 111 -110
-97 81 -33 -34 92 86 107 -57
-45 58 55 -42 33 43 51 111
112 -24 110 -127 44 64 101 -30
-95 -68 85 0 -16 9 -113 -87

model/separable_conv2d_1/separable_conv2d/depthwise i1 [1, 3, 3, 32]
00000000: aca9 595f 7429 5862 3be3 6f26 8109 470b
00000010: 62af 5b0c 8134 98f1 3d81 bb7f 1db7 7fcd
00000020: 3e0d 92bd 3769 4c54 629d 0ce5 4bd3 8160
00000030: 8ba2 278d 4629 df4a 7f04 20da 1d32 4cd4
00000040: 072c d5e6 e967 a764 ca42 4e28 389b e007
00000050: 1d03 69f6 ac75 ba7b 6cdf e75c 50f9 ad0d
00000060: 127f 441e 5019 204e 60e8 4722 32a1 a259
00000070: 99c1 09e8 8a81 c1b3 155f 41ec ffe9 253d
00000080: 44ec 51f6 087f 52a8 8181 f39e c7fe 13d4
00000090: 5781 adfa 31e3 81b3 367d 7f8c 817f 8e7e
000000a0: e014 8129 4b94 d4ec 0c8d 7f3c aa0c e181
000000b0: 3010 0b81 c250 cc81 2ab5 e7c4 5660 127f
000000c0: 81d9 3b0b b52f 7f15 6839 4a5f 10a2 8b0e
000000d0: a6fe 81ca 5182 64ae e136 4e02 ea4f 64e0
000000e0: d9cd e381 81a5 3b81 25b1 0511 c881 fb3c
000000f0: 81c4 4dcc 2869 dc16 a859 06b2 d116 7055
-84 -87 89 95 116 41 88 98
59 -29 111 38 -127 9 71 11
98 -81 91 12 -127 52 -104 -15
61 -127 -69 127 29 -73 127 -51
62 13 -110 -67 55 105 76 84
98 -99 12 -27 75 -45 -127 96
-117 -94 39 -115 70 41 -33 74
127 4 32 -38 29 50 76 -44
7 44 -43 -26 -23 103 -89 100
-54 66 78 40 56 -101 -32 7
29 3 105 -10 -84 117 -70 123
108 -33 -25 92 80 -7 -83 13
18 127 68 30 80 25 32 78
96 -24 71 34 50 -95 -94 89
-103 -63 9 -24 -118 -127 -63 -77
21 95 65 -20 -1 -23 37 61
68 -20 81 -10 8 127 82 -88
-127 -127 -13 -98 -57 -2 19 -44
87 -127 -83 -6 49 -29 -127 -77
54 125 127 -116 -127 127 -114 126
-32 20 -127 41 75 -108 -44 -20
12 -115 127 60 -86 12 -31 -127
48 16 11 -127 -62 80 -52 -127
42 -75 -25 -60 86 96 18 127
-127 -39 59 11 -75 47 127 21
104 57 74 95 16 -94 -117 14
-90 -2 -127 -54 81 -126 100 -82
-31 54 78 2 -22 79 100 -32
-39 -51 -29 -127 -127 -91 59 -127
37 -79 5 17 -56 -127 -5 60
-127 -60 77 -52 40 105 -36 22
-88 89 6 -78 -47 22 112 85

model/separable_conv2d/separable_conv2d i1 [32, 1, 1, 32]
00000000: e6b9 1c0a 122b 2803 07bc cb40 7f0c 5d10
00000010: acaf ddcd be58 b028 03d6 0ecc 891a 3c88
00000020: a27c 2547 a999 1cbf 24c9 40db b107 aa25
00000030: b742 a533 fe5a 7a21 4738 65c6 63e5 8c7f
00000040: bb63 374c d4f3 c1d4 fc4a e404 3f01 81a8
00000050: 60e8 d726 4429 052e 3707 fc2d f8e6 c6f7
00000060: 5595 4147 ad0a 50c5 39b0 b277 6345 8169
00000070: d78d 98e3 8e16 c931 bfe5 47ba f424 f08f
00000080: caa7 be47 95c4 8371 d1f6 ce9e 59cb ae6c
00000090: 7a11 0881 c58b 55a6 23bc c405 5337 c618
000000a0: 332c 4d8d a325 9507 5a16 a514 98fc 837f
000000b0: dc8c 93cb f105 eba0 c290 4cdf 74c3 45b6
000000c0: 243c ef22 fdff 60b9 527f bbd1 e52b f2ab
000000d0: 4ed5 6bdc ee27 1f0e 0aa7 f585 4642 1e92
000000e0: 1294 7f2b 26ad 5521 6462 de23 a56d 6da9
000000f0: 6331 9c9c ce2b 9461 e7a8 954f 98ae 931b
-26 -71 28 10 18 43 40 3
7 -68 -53 64 127 12 93 16
-84 -81 -35 -51 -66 88 -80 40
3 -42 14 -52 -119 26 60 -120
-94 124 37 71 -87 -103 28 -65
36 -55 64 -37 -79 7 -86 37
-73 66 -91 51 -2 90 122 33
71 56 101 -58 99 -27 -116 127
-69 99 55 76 -44 -13 -63 -44
-4 74 -28 4 63 1 -127 -88
96 -24 -41 38 68 41 5 46
55 7 -4 45 -8 -26 -58 -9
85 -107 65 71 -83 10 80 -59
57 -80 -78 119 99 69 -127 105
-41 -115 -104 -29 -114 22 -55 49
-65 -27 71 -70 -12 36 -16 -113
-54 -89 -66 71 -107 -60 -125 113
-47 -10 -50 -98 89 -53 -82 108
122 17 8 -127 -59 -117 85 -90
35 -68 -60 5 83 55 -58 24
51 44 77 -115 -93 37 -107 7
90 22 -91 20 -104 -4 -125 127
-36 -116 -109 -53 -15 5 -21 -96
-62 -112 76 -33 116 -61 69 -74
36 60 -17 34 -3 -1 96 -71
82 127 -69 -47 -27 43 -14 -85
78 -43 107 -36 -18 39 31 14
10 -89 -11 -123 70 66 30 -110
18 -108 127 43 38 -83 85 33
100 98 -34 35 -91 109 109 -87
99 49 -100 -100 -50 43 -108 97
-25 -88 -107 79 -104 -82 -109 27

model/separable_conv2d/separable_conv2d/depthwise i1 [1, 3, 3, 32]
00000000: fadc a5a1 d231 e45b f0f1 be41 0ba0 7f7f
00000010: f844 3fd1 b47f 078e c354 6240 ebf7 1770
00000020: 818c 8147 12bf c256 7f28 98ad 8102 2b07
00000030: 07c1 9956 a861 810c 1a62 b76b 669c d2d3
00000040: 6bc1 962f 4afa 7fd0 1b38 786f 5d76 587c
00000050: 7e54 5e43 81a2 1291 3bae c907 8149 9fdc
00000060: f4db 387f 1b81 113d d9e8 92dc f92e 6a84
00000070: 302e dc4f 85f7 502d 1505 5101 6f33 767f
00000080: 3406 a7c5 ee05 0abb 265a 9875 8c9e 653b
00000090: c339 813b 1510 1132 0745 7fa6 4081 a0d2
000000a0: 6c81 b769 f60f c4cf 843a a4aa ac72 f698
000000b0: 6f1f 81f4 1645 1e53 dfbf 62fb f3b0 fdf9
000000c0: b5e1 10d5 fe0a 5286 085c cfdc 2b9e 4577
000000d0: 8ed6 a72f 7eba 5be9 9dc6 e34a 34d3 7f65
000000e0: 2ee6 b81d 81b8 7a87 24db caa2 0281 fa14
000000f0: 8120 bb7f ce58 839b 8181 f97f cf46 4a14
-6 -36 -91 -95 -46 49 -28 91
-16 -15 -66 65 11 -96 127 127
-8 68 63 -47 -76 127 7 -114
-61 84 98 64 -21 -9 23 112
-127 -116 -127 71 18 -65 -62 86
127 40 -104 -83 -127 2 43 7
7 -63 -103 86 -88 97 -127 12
26 98 -73 107 102 -100 -46 -45
107 -63 -106 47 74 -6 127 -48
27 56 120 111 93 118 88 124
126 84 94 67 -127 -94 18 -111
59 -82 -55 7 -127 73 -97 -36
-12 -37 56 127 27 -127 17 61
-39 -24 -110 -36 -7 46 106 -124
48 46 -36 79 -123 -9 80 45
21 5 81 1 111 51 118 127
52 6 -89 -59 -18 5 10 -69
38 90 -104 117 -116 -98 101 59
-61 57 -127 59 21 16 17 50
7 69 127 -90 64 -127 -96 -46
108 -127 -73 105 -10 15 -60 -49
-124 58 -92 -86 -84 114 -10 -104
111 31 -127 -12 22 69 30 83
-33 -65 98 -5 -13 -80 -3 -7
-75 -31 16 -43 -2 10 82 -122
8 92 -49 -36 43 -98 69 119
-114 -42 -89 47 126 -70 91 -23
-99 -58 -29 74 52 -45 127 101
46 -26 -72 29 -127 -72 122 -121
36 -37 -54 -94 2 -127 -6 20
-127 32 -69 127 -50 88 -125 -101
-127 -127 -7 127 -49 70 74 20

model/conv2d_1/Conv2D i1 [32, 3, 3, 16]
00000000: 0b55 5614 a22d c042 3845 f8de 6ce4 390f
00000010: a545 ccd4 a023 e5ac bb1f 841a 8f25 fc9c
00000020: 26f3 fd31 09d9 aaee ab5d 14c8 a844 edb3
00000030: 987f b8d1 d792 b030 b525 1e29 7ade fe97
00000040: ef58 13ed c1b9 1598 8e31 0ac2 f091 b2ee
00000050: 205a 9feb dda1 9aa7 e5ae a60b d9e5 b9e9
00000060: 6774 dcec 3f18 46fd 51df 2122 1c07 1554
00000070: 2e46 1aba bcab 4639 a93b 47eb 3bff 1c05
00000080: 8125 19eb edf1 b82c b0ff c336 2700 36d2
00000090: e781 dbdf 1636 bb1b 1ae3 2e24 a71d 1ff1
000000a0: 4120 a0c9 2c05 17cf bc08 04ff f927 06ee
000000b0: 0dfe 58b4 b02c 11c7 0cf6 cbf7 0229 15df
000000c0: de02 1acd 0fe4 e8bf e5ca a119 a5ab 3303
000000d0: 18f0 d600 4d3b 1914 98bc 2ce9 ec15 1713
000000e0: c4e5 df3d dce7 b524 e226 f0c1 fec1 0701
000000f0: cfee 03c7 d9b6 1dee 1b14 2cef 551d d403
11 85 86 20 -94 45 -64 66
56 69 -8 -34 108 -28 57 15
-91 69 -52 -44 -96 35 -27 -84
-69 31 -124 26 -113 37 -4 -100
38 -13 -3 49 9 -39 -86 -18
-85 93 20 -56 -88 68 -19 -77
-104 127 -72 -47 -41 -110 -80 48
-75 37 30 41 122 -34 -2 -105
-17 88 19 -19 -63 -71 21 -104
-114 49 10 -62 -16 -111 -78 -18
32 90 -97 -21 -35 -95 -102 -89
-27 -82 -90 11 -39 -27 -71 -23
103 116 -36 -20 63 24 70 -3
81 -33 33 34 28 7 21 84
46 70 26 -70 -68 -85 70 57
-87 59 71 -21 59 -1 28 5
-127 37 25 -21 -19 -15 -72 44
-80 -1 -61 54 39 0 54 -46
-25 -127 -37 -33 22 54 -69 27
26 -29 46 36 -89 29 31 -15
65 32 -96 -55 44 5 23 -49
-68 8 4 -1 -7 39 6 -18
13 -2 88 -76 -80 44 17 -57
12 -10 -53 -9 2 41 21 -33
-34 2 26 -51 15 -28 -24 -65
-27 -54 -95 25 -91 -85 51 3
24 -16 -42 0 77 59 25 20
-104 -68 44 -23 -20 21 23 19
-60 -27 -33 61 -36 -25 -75 36
-30 38 -16 -63 -2 -63 7 1
-49 -18 3 -57 -39 -74 29 -18
27 20 44 -17 85 29 -44 3

model/conv2d/Conv2D i1 [16, 3, 3, 1]
00000000: bdd3 ff7f e3b3 e531 4f42 0fa7 7681 baad
00000010: 640a 597f affc 0743 cb09 11dc c5c6 542f
00000020: a7f8 7f0f 81a5 ef28 2457 eeaf f689 d511
00000030: ba78 3875 3a81 1a3b 6ee0 b704 b117 818a
00000040: 7f35 57fb 9fe1 6921 7f1e 68c0 71d5 9924
00000050: e8cc c0e1 3375 8581 a733 3978 e981 2843
00000060: 1ca5 0e81 a263 d88a 6e0c e6dd 1ccd ff19
00000070: cb2a 187f 12d4 b2ed 0a27 7f09 5a73 0991
00000080: f589 16fb 8109 9481 3d3a 6459 e3c9 a8fa
-67 -45 -1 127 -29 -77 -27 49
79 66 15 -89 118 -127 -70 -83
100 10 89 127 -81 -4 7 67
-53 9 17 -36 -59 -58 84 47
-89 -8 127 15 -127 -91 -17 40
36 87 -18 -81 -10 -119 -43 17
-70 120 56 117 58 -127 26 59
110 -32 -73 4 -79 23 -127 -118
127 53 87 -5 -97 -31 105 33
127 30 104 -64 113 -43 -103 36
-24 -52 -64 -31 51 117 -123 -127
-89 51 57 120 -23 -127 40 67
28 -91 14 -127 -94 99 -40 -118
110 12 -26 -35 28 -51 -1 25
-53 42 24 127 18 -44 -78 -19
10 39 127 9 90 115 9 -111
-11 -119 22 -5 -127 9 -108 -127
61 58 100 89 -29 -55 -88 -6
