vision/people_flow_counter_mlx90640/config/tflite/model_quantized_old.tflite (tflite, 26480 bytes, 10 tensors)

model/class_type/Conv2D i1 [1, 1, 1, 32] scale=0.0031998518 zero_point=0
-0.39038193 -0.044797927 -0.060797185 0.25598815 -0.10559511 -0.1663923 -0.31678534 0.12479422
-0.16959214 -0.26238784 0.028798666 0.24638858 -0.06399704 0.37758252 0.012799407 0.10559511
-0.23678903 -0.39358178 -0.086396 -0.39358178 -0.2911865 -0.4063812 0.14079349 0.21758993
0.15679274 0.07039674 -0.19519097 0.0031998518 -0.2399889 -0.39678162 -0.3711828 0.28798667
00000000: 86f2 ed50 dfcc 9d27 cbae 094d ec76 0421
00000010: b685 e585 a581 2c44 3116 c301 b584 8c5a

model/centerness/Conv2D i1 [1, 1, 1, 32] scale=0.0037850144 zero_point=0
-0.28009108 -0.257381 0.40878156 0.35957637 -0.022710087 -0.38228646 0.045420174 -0.18925072
0.037850145 0.079485305 0.17411067 -0.17411067 0.12112046 -0.35957637 -0.3103712 -0.48069683
0.030280115 0.08327032 0.13626052 -0.29523113 -0.3103712 -0.13626052 -0.117335446 -0.20439078
-0.04163516 0.27630606 0.0037850144 -0.17032565 0.257381 -0.056775216 0.23088588 0.26873603
00000000: b6bc 6c5f fa9b 0cce 0a15 2ed2 20a1 ae81
00000010: 0816 24b2 aedc e1ca f549 01d3 44f1 3d47

model/bounding_box/Conv2D i1 [4, 1, 1, 32]
51 -98 -29 127 123 -1 -125 58
23 90 4 -75 24 -14 76 45
42 115 -6 -5 -72 89 10 123
45 39 -107 36 116 26 -110 -72
44 127 -88 1 -45 -66 -61 24
-30 -21 -60 94 -102 -29 102 -60
-26 -8 -19 -74 -14 -14 89 65
96 120 -10 47 31 107 103 -69
-80 -16 -38 -92 108 57 42 -96
118 13 108 -86 45 98 108 -102
117 99 -75 -80 78 79 48 -122
127 29 -30 19 2 47 -5 17
122 -87 14 81 -64 -44 -52 115
12 116 -39 -63 -54 127 -84 28
110 2 13 11 19 -17 88 20
53 -37 15 -9 -27 11 -62 -68
00000000: 339e e37f 7bff 833a 175a 04b5 18f2 4c2d
00000010: 2a73 fafb b859 0a7b 2d27 9524 741a 92b8
00000020: 2c7f a801 d3be c318 e2eb c45e 9ae3 66c4
00000030: e6f8 edb6 f2f2 5941 6078 f62f 1f6b 67bb
00000040: b0f0 daa4 6c39 2aa0 760d 6caa 2d62 6c9a
00000050: 7563 b5b0 4e4f 3086 7f1d e213 022f fb11
00000060: 7aa9 0e51 c0d4 cc73 0c74 d9c1 ca7f ac1c
00000070: 6e02 0d0b 13ef 5814 35db 0ff7 e50b c2bc

model/conv2d_2/Conv2D1 i1 [32, 1, 1, 96]
51 68 -80 -25 100 58 -59 60
73 -64 54 -19 -92 35 100 98
-61 -83 -38 -85 91 -13 79 87
-41 69 19 78 69 -29 1 -48
48 69 112 21 20 -24 35 54
77 -69 25 -82 28 89 -1 -61
52 -54 -64 44 14 -65 -80 -72
67 -62 -42 43 15 72 -23 54
-41 -28 127 51 15 115 -35 20
-77 47 102 77 -73 47 -12 -67
78 -77 44 32 -52 106 -44 -9
-27 50 3 55 22 60 15 -6
-2 -25 -127 84 46 -31 75 -40
8 28 82 67 39 -73 49 -60
-27 43 34 24 0 2 -22 -71
23 0 -11 16 23 92 109 27
-43 9 69 12 48 55 48 -21
-22 18 -26 -9 -33 -19 72 28
61 -59 1 -43 31 -30 9 -52
118 82 11 -31 45 -40 -53 18
34 59 -69 54 21 17 -21 58
-11 -16 51 52 -40 76 -11 70
-58 -25 23 105 -40 27 46 3
52 32 -5 61 64 -1 -77 37
48 78 -84 61 -76 -35 24 -8
-85 -98 -28 13 1 -52 12 -94
-110 -99 89 79 -64 -32 74 44
-42 58 -127 -55 57 19 -95 111
-4 72 -116 14 -118 -68 -75 91
65 76 -78 -112 17 49 -33 -112
-4 29 -62 -107 -50 -126 -52 56
11 -125 56 81 -60 12 56 -81
00000000: 3344 b0e7 643a c53c 49c0 36ed a423 6462
00000010: c3ad daab 5bf3 4f57 d745 134e 45e3 01d0
00000020: 3045 7015 14e8 2336 4dbb 19ae 1c59 ffc3
00000030: 34ca c02c 0ebf b0b8 43c2 d62b 0f48 e936
00000040: d7e4 7f33 0f73 dd14 b32f 664d b72f f4bd
00000050: 4eb3 2c20 cc6a d4f7 e532 0337 163c 0ffa
00000060: fee7 8154 2ee1 4bd8 081c 5243 27b7 31c4
00000070: e52b 2218 0002 eab9 1700 f510 175c 6d1b
00000080: d509 450c 3037 30eb ea12 e6f7 dfed 481c
00000090: 3dc5 01d5 1fe2 09cc 7652 0be1 2dd8 cb12
000000a0: 223b bb36 1511 eb3a f5f0 3334 d84c f546
000000b0: c6e7 1769 d81b 2e03 3420 fb3d 40ff b325
000000c0: 304e ac3d b4dd 18f8 ab9e e40d 01cc 0ca2
000000d0: 929d 594f c0e0 4a2c d63a 81c9 3913 a16f
000000e0: fc48 8c0e 8abc b55b 414c b290 1131 df90
000000f0: fc1d c295 ce82 cc38 0b83 3851 c40c 38af

model/separable_conv2d_1/separable_conv2d i1 [32, 1, 1, 32]
4 -14 -69 -105 82 -81 47 -48
31 96 27 -87 57 -75 108 -80
-100 45 33 127 53 -86 -52 -6
81 81 43 -119 61 -35 41 58
127 95 -8 -29 -84 83 92 -52
83 102 -6 112 -23 -16 -88 -118
-10 76 24 47 -79 -26 -54 -68
-33 92 46 103 9 67 -93 -2
113 67 45 16 5 77 -108 56
17 -83 17 -40 -6 -70 -42 -99
-106 54 5 -82 39 -60 -110 28
36 27 105 88 -105 45 127 69
8 59 -43 -83 99 47 -81 108
-42 -85 -2 19 18 -78 -116 -60
16 50 -27 -69 -75 14 47 80
39 -7 127 -89 71 67 -69 118
69 93 -59 53 105 87 106 11
72 -46 76 -11 -15 66 102 78
106 51 -21 76 -127 14 -26 126
23 118 -60 120 122 83 -77 -68
-103 95 -52 -57 -48 -96 -29 -70
-1 -24 93 127 82 118 103 46
123 -15 -51 -36 27 -82 -103 24
-63 89 -75 -58 75 63 -76 51
24 110 47 -62 -49 1 -77 50
81 92 74 -80 22 -126 -25 -14
100 -127 -86 -87 64 -107 -42 123
-78 -85 -44 -68 86 -30 83 -109
-108 101 -43 -33 89 71 110 -62
-50 71 61 -69 36 42 48 119
113 -27 109 -122 36 62 104 -23
-127 -49 87 -12 -29 4 -123 -108
00000000: 04f2 bb97 52af 2fd0 1f60 1ba9 39b5 6cb0
00000010: 9c2d 217f 35aa ccfa 5151 2b89 3ddd 293a
00000020: 7f5f f8e3 ac53 5ccc 5366 fa70 e9f0 a88a
00000030: f64c 182f b1e6 cabc df5c 2e67 0943 a3fe
00000040: 7143 2d10 054d 9438 11ad 11d8 faba d69d
00000050: 9636 05ae 27c4 921c 241b 6958 972d 7f45
00000060: 083b d5ad 632f af6c d6ab fe13 12b2 8cc4
00000070: 1032 e5bb b50e 2f50 27f9 7fa7 4743 bb76
00000080: 455d c535 6957 6a0b 48d2 4cf5 f142 664e
00000090: 6a33 eb4c 810e e67e 1776 c478 7a53 b3bc
000000a0: 995f ccc7 d0a0 e3ba ffe8 5d7f 5276 672e
000000b0: 7bf1 cddc 1bae 9918 c159 b5c6 4b3f b433
000000c0: 186e 2fc2 cf01 b332 515c 4ab0 1682 e7f2
000000d0: 6481 aaa9 4095 d67b b2ab d4bc 56e2 5393
000000e0: 9465 d5df 5947 6ec2 ce47 3dbb 242a 3077
000000f0: 71e5 6d86 243e 68e9 81cf 57f4 e304 8594

model/separable_conv2d_1/separable_conv2d/depthwise i1 [1, 3, 3, 32]
-93 -67 77 111 126 63 85 89
80 -35 127 9 -127 9 55 9
106 -127 59 -21 -127 45 -127 -22
48 -57 -78 82 13 -74 94 -79
90 71 -127 -62 93 127 56 76
127 -103 66 -33 73 -25 -121 106
-127 -96 20 -127 72 21 -24 119
127 28 61 -55 20 76 35 -69
39 70 -52 -27 -59 117 -71 78
-33 50 81 41 49 -57 -22 12
51 42 106 17 -105 125 -63 93
121 -8 -18 70 110 -34 -124 8
49 127 55 32 113 28 87 64
82 -32 76 13 58 -58 -123 88
-121 -102 -62 -14 -115 -101 -62 -103
-30 98 89 8 31 -13 25 60
107 -36 83 14 30 108 60 -93
-96 -127 19 -89 -54 -8 54 -72
72 -122 -81 -12 62 -42 -111 -88
44 127 127 -127 -127 123 -127 125
-21 12 -103 78 27 -93 -53 -51
9 -105 104 76 -104 30 -36 -127
56 67 22 -100 -58 54 -61 -127
23 -60 -26 -74 99 94 0 127
-127 -57 34 0 -95 79 127 12
72 65 51 87 28 -77 -127 -1
-115 -31 -127 -27 88 -127 79 -50
-41 83 87 35 -24 127 107 -21
-40 -72 -54 -127 -127 -93 46 -127
37 -52 -1 -5 -72 -127 21 58
-126 -79 77 -56 20 78 -51 42
-112 72 -5 -90 -31 -10 111 83
00000000: a3bd 4d6f 7e3f 5559 50dd 7f09 8109 3709
00000010: 6a81 3beb 812d 81ea 30c7 b252 0db6 5eb1
00000020: 5a47 81c2 5d7f 384c 7f99 42df 49e7 876a
00000030: 81a0 1481 4815 e877 7f1c 3dc9 144c 23bb
00000040: 2746 cce5 c575 b94e df32 5129 31c7 ea0c
00000050: 332a 6a11 977d c15d 79f8 ee46 6ede 8408
00000060: 317f 3720 711c 5740 52e0 4c0d 3ac6 8558
00000070: 879a c2f2 8d9b c299 e262 5908 1ff3 193c
00000080: 6bdc 530e 1e6c 3ca3 a081 13a7 caf8 36b8
00000090: 4886 aff4 3ed6 91a8 2c7f 7f81 817b 817d
000000a0: eb0c 994e 1ba3 cbcd 0997 684c 981e dc81
000000b0: 3843 169c c636 c381 17c4 e6b6 635e 007f
000000c0: 81c7 2200 a14f 7f0c 4841 3357 1cb3 81ff
000000d0: 8de1 81e5 5881 4fce d753 5723 e87f 6beb
000000e0: d8b8 ca81 81a3 2e81 25cc fffb b881 153a
000000f0: 82b1 4dc8 144e cd2a 9048 fba6 e1f6 6f53

model/separable_conv2d/separable_conv2d i1 [32, 1, 1, 32]
-26 -65 25 8 12 46 47 -4
6 -51 -58 53 125 20 102 28
-90 -82 -44 -44 -85 98 -83 44
9 -39 4 -52 -102 26 70 -127
-99 112 49 72 -91 -95 47 -60
29 -48 56 -38 -65 -7 -84 37
-80 74 -81 34 -1 74 116 5
55 50 82 -60 82 -29 -107 127
-73 109 59 102 -43 -15 -78 -64
-2 98 -30 8 55 13 -127 -98
110 -19 -58 35 56 58 -10 64
62 -2 -6 52 0 -14 -69 -30
85 -112 80 74 -95 18 70 -54
67 -81 -81 111 90 68 -127 104
-42 -110 -109 -31 -108 6 -45 57
-37 -23 65 -81 -16 39 -17 -126
-39 -76 -64 75 -113 -56 -127 120
-56 -19 -55 -95 92 -64 -78 92
115 27 11 -113 -54 -125 85 -108
34 -68 -40 1 73 57 -64 47
33 53 63 -127 -98 44 -106 6
107 29 -93 28 -99 -4 -124 121
-46 -123 -108 -50 -17 5 -21 -101
-72 -102 75 -37 103 -51 73 -64
38 52 -16 32 -11 -5 92 -60
70 127 -75 -37 -25 44 -15 -91
75 -29 108 -41 -21 43 30 28
25 -81 -8 -123 71 67 26 -109
13 -111 127 47 48 -95 83 48
104 107 -37 38 -96 104 107 -92
93 46 -99 -104 -46 39 -101 101
17 -103 -109 80 -105 -80 -117 24
00000000: e6bf 1908 0c2e 2ffc 06cd c635 7d14 661c
00000010: a6ae d4d4 ab62 ad2c 09d9 04cc 9a1a 4681
00000020: 9d70 3148 a5a1 2fc4 1dd0 38da bff9 ac25
00000030: b04a af22 ff4a 7405 3732 52c4 52e3 957f
00000040: b76d 3b66 d5f1 b2c0 fe62 e208 370d 819e
00000050: 6eed c623 383a f640 3efe fa34 00f2 bbe2
00000060: 5590 504a a112 46ca 43af af6f 5a44 8168
00000070: d692 93e1 9406 d339 dbe9 41af f027 ef82
00000080: d9b4 c04b 8fc8 8178 c8ed c9a1 5cc0 b25c
00000090: 731b 0b8f ca83 5594 22bc d801 4939 c02f
000000a0: 2135 3f81 9e2c 9606 6b1d a31c 9dfc 8479
000000b0: d285 94ce ef05 eb9b b89a 4bdb 67cd 49c0
000000c0: 2634 f020 f5fb 5cc4 467f b5db e72c f1a5
000000d0: 4be3 6cd7 eb2b 1e1c 19af f885 4743 1a93
000000e0: 0d91 7f2f 30a1 5330 686b db26 a068 6ba4
000000f0: 5d2e 9d98 d227 9b65 1199 9350 97b0 8b18

model/separable_conv2d/separable_conv2d/depthwise i1 [1, 3, 3, 32]
0 -42 -71 -71 -39 -4 -29 90
-44 -14 -67 32 9 -117 127 127
-10 105 79 -67 -84 127 -5 -127
-63 46 116 82 -22 10 32 104
-127 -106 -127 79 7 -121 -58 95
111 44 -101 -105 -97 -22 30 5
-2 -40 -109 62 -81 100 -122 -15
10 73 -30 114 127 -99 -40 -42
85 -63 -98 44 83 -59 127 -71
0 59 115 100 94 91 91 112
103 124 91 58 -111 -77 11 -78
19 -71 -22 30 -102 74 -85 -47
-7 -31 79 127 23 -127 9 53
-26 -14 -122 -50 -51 52 101 -106
62 52 -32 81 -125 -9 64 9
-18 -4 71 0 85 40 100 127
77 22 -85 -58 -25 37 -21 -56
49 99 -103 127 -127 -91 72 62
-45 54 -127 43 25 4 14 7
-20 51 127 -122 49 -127 -96 -20
92 -122 -70 80 -2 26 -96 -46
-127 54 -106 -77 -106 120 0 -103
115 49 -116 -27 27 62 38 58
-50 -57 85 8 -37 -59 1 1
-67 0 18 -54 -3 1 69 -127
18 81 -72 -38 48 -127 105 112
-122 -62 -75 49 127 -55 93 -12
-99 -57 13 74 38 -66 127 91
71 15 -71 16 -127 -74 119 -101
41 -30 -54 -80 15 -114 -12 29
-127 34 -73 127 -54 80 -127 -89
-127 -127 19 127 -29 46 90 32
00000000: 00d6 b9b9 d9fc e35a d4f2 bd20 098b 7f7f
00000010: f669 4fbd ac7f fb81 c12e 7452 ea0a 2068
00000020: 8196 814f 0787 c65f 6f2c 9b97 9fea 1e05
00000030: fed8 933e af64 86f1 0a49 e272 7f9d d8d6
00000040: 55c1 9e2c 53c5 7fb9 003b 7364 5e5b 5b70
00000050: 677c 5b3a 91b3 0bb2 13b9 ea1e 9a4a abd1
00000060: f9e1 4f7f 1781 0935 e6f2 86ce cd34 6596
00000070: 3e34 e051 83f7 4009 eefc 4700 5528 647f
00000080: 4d16 abc6 e725 ebc8 3163 997f 81a5 483e
00000090: d336 812b 1904 0e07 ec33 7f86 3181 a0ec
000000a0: 5c86 ba50 fe1a a0d2 8136 96b3 9678 0099
000000b0: 7331 8ce5 1b3e 263a cec7 5508 dbc5 0101
000000c0: bd00 12ca fd01 4581 1251 b8da 3081 6970
000000d0: 86c2 b531 7fc9 5df4 9dc7 0d4a 26be 7f5b
000000e0: 470f b910 81b6 779b 29e2 cab0 0f8e f41d
000000f0: 8122 b77f ca50 81a7 8181 137f e32e 5a20

model/conv2d_1/Conv2D i1 [32, 3, 3, 16]
-7 60 93 9 -95 41 -38 71
68 68 4 -25 81 -37 69 30
-98 62 -47 -49 -100 30 -24 -78
-50 18 -119 21 -109 33 -14 -89
25 -23 8 37 -2 -46 -96 -10
-59 73 17 -65 -81 61 -38 -47
-127 75 -78 -53 -29 -92 -58 40
-70 49 33 59 78 -43 17 -84
-31 80 15 -20 -63 -76 12 -105
-107 40 4 -52 -24 -103 -81 -24
26 74 -94 -28 -40 -102 -108 -81
-25 -91 -90 1 -37 -25 -84 -31
61 73 -63 -50 55 35 56 -8
51 -36 14 49 -14 -7 20 67
30 64 10 -68 -75 -91 52 53
-99 44 56 -8 49 -3 15 -12
-108 24 13 -30 -30 -36 -81 51
-86 -14 -63 50 44 6 39 -58
-22 -127 -22 -27 18 42 -67 26
24 -24 35 27 -71 25 23 -12
51 16 -70 -42 37 4 -10 -30
-54 9 -22 -2 -5 33 6 -17
10 -7 68 -63 -62 38 -19 -44
4 -3 -81 -7 2 35 22 -31
-29 -19 29 -32 22 -21 -14 -49
-13 -37 -70 23 -72 -67 46 11
17 -17 -27 8 70 45 26 20
-73 -47 41 -20 -16 11 24 27
-53 -27 -31 48 -20 -32 -57 22
-16 35 -18 -51 -5 -60 10 9
-44 -25 4 -37 -29 -55 23 -7
20 17 34 -14 79 30 -34 6
00000000: f93c 5d09 a129 da47 4444 04e7 51db 451e
00000010: 9e3e d1cf 9c1e e8b2 ce12 8915 9321 f2a7
00000020: 19e9 0825 fed2 a0f6 c549 11bf af3d dad1
00000030: 814b b2cb e3a4 c628 ba31 213b 4ed5 11ac
00000040: e150 0fec c1b4 0c97 9528 04cc e899 afe8
00000050: 1a4a a2e4 d89a 94af e7a5 a601 dbe7 ace1
00000060: 3d49 c1ce 3723 38f8 33dc 0e31 f2f9 1443
00000070: 1e40 0abc b5a5 3435 9d2c 38f8 31fd 0ff4
00000080: 9418 0de2 e2dc af33 aaf2 c132 2c06 27c6
00000090: ea81 eae5 122a bd1a 18e8 231b b919 17f4
000000a0: 3310 bad6 2504 f6e2 ca09 eafe fb21 06ef
000000b0: 0af9 44c1 c226 edd4 04fd aff9 0223 16e1
000000c0: e3ed 1de0 16eb f2cf f3db ba17 b8bd 2e0b
000000d0: 11ef e508 462d 1a14 b7d1 29ec f00b 181b
000000e0: cbe5 e130 ece0 c716 f023 eecd fbc4 0a09
000000f0: d4e7 04db e3c9 17f9 1411 22f2 4f1e de06

model/conv2d/Conv2D i1 [16, 3, 3, 1]
-71 -56 -3 127 -31 -84 -24 46
85 72 13 -86 113 -127 -73 -81
92 15 101 127 -92 -5 4 68
-55 12 17 -37 -55 -54 84 48
-84 -18 127 14 -127 -97 -20 46
55 100 -16 -82 -9 -127 -50 22
-73 113 62 123 84 -114 33 61
109 -23 -70 5 -79 19 -127 -100
127 53 88 2 -79 -21 93 29
127 38 99 -64 99 -44 -105 30
-32 -59 -59 -35 46 120 -122 -127
-85 47 50 104 -49 -127 31 50
23 -94 8 -127 -93 98 -47 -104
114 15 -28 -39 25 -54 -8 25
-61 32 20 127 5 -45 -81 -22
10 54 127 11 80 108 12 -101
-13 -112 28 -6 -127 10 -110 -127
51 50 73 74 -28 -52 -67 2
00000000: b9c8 fd7f e1ac e82e 5548 0daa 7181 b7af
00000010: 5c0f 657f a4fb 0444 c90c 11db c9ca 5430
00000020: acee 7f0e 819f ec2e 3764 f0ae f781 ce16
00000030: b771 3e7b 548e 213d 6de9 ba05 b113 819c
00000040: 7f35 5802 b1eb 5d1d 7f26 63c0 63d4 971e
00000050: e0c5 c5dd 2e78 8681 ab2f 3268 cf81 1f32
00000060: 17a2 0881 a362 d198 720f e4d9 19ca f819
00000070: c320 147f 05d3 afea 0a36 7f0b 506c 0c9b
00000080: f390 1cfa 810a 9281 3332 494a e4cc bd02
